Config/OCR/models/custom/model.onnx (onnx, 21248 bytes, 3 tensors)

features.0.bias f4 [32]
000000 12 c4 ba bd 60 f9 72 bd b9 dc 2d bd 13 58 be 3c
       -0.09119429 -0.059319854 -0.042446826 0.023235356
000010 b9 a0 69 be 05 e3 bb be 7a 3b 25 bd 48 8f ae bd
       -0.22815217 -0.3669664 -0.040339924 -0.085234225
000020 45 b1 30 3c c6 3e 50 be 9d b1 87 be 52 d0 ab 3d
       0.010784452 -0.20336446 -0.26502696 0.08389343
000030 14 14 ab be 6a b6 e2 bd 95 94 27 be 7b 4f 1c 3e
       -0.33413756 -0.11069949 -0.16365273 0.15264694
000040 9c 61 76 be 34 cf 16 3d d4 6c 48 be 2f 4f 1f be
       -0.24060673 0.036818698 -0.19572765 -0.1555755
000050 75 ae 92 be 49 98 04 be 18 7c ae be fc 2d 85 bd
       -0.28648725 -0.12948717 -0.3407905 -0.065029114
000060 e9 bd 19 be 09 20 54 3d 2d 4f 91 3d 9c 12 93 be
       -0.15013851 0.051788364 0.0709518 -0.28725135
000070 74 e7 6f be 9b d8 5b be aa 98 61 be 42 ca d6 3d
       -0.23428136 -0.21469347 -0.22030893 0.10487796

features.3.bias f4 [64]
000000 f8 4a eb bd 66 77 0c bd a6 27 69 bd dc f2 c3 bc
       -0.114889085 -0.034293555 -0.056922577 -0.023919515
000010 cc 18 e8 bd e0 2a 42 3c 45 1f 68 bd da 58 9c bb
       -0.11332855 0.0118510425 -0.056670446 -0.004771334
000020 fb f4 2a bd 15 f1 ec 3c f3 ba 83 3d fb 29 02 be
       -0.041737538 0.02892355 0.06432142 -0.12711327
000030 68 28 5c bd 82 b6 0c bd ce 9c b7 bd 06 7f a9 bd
       -0.053749472 -0.03435374 -0.08965455 -0.08276181
000040 89 ea 21 bd b4 59 f5 bc 79 55 04 bd 21 fb 42 bc
       -0.03953031 -0.02995 -0.032308076 -0.011900694
000050 47 54 91 bc 61 92 8c bd 0c 0d 57 bc 0f 69 d5 3b
       -0.017740382 -0.06863857 -0.013125669 0.006512768
000060 db 89 de bd bf bc c5 bd 14 55 8e bd aa 2d de 3c
       -0.108661376 -0.09655141 -0.06949821 0.027121384
000070 12 69 0b bd 8a 59 6d bd db 08 67 3c 97 1c 2c 3d
       -0.03403575 -0.05794672 0.014101232 0.042019453
000080 44 4c 25 bd f3 85 31 3b 0c 57 84 3d df a6 a4 bc
       -0.040355936 0.0027087897 0.064619154 -0.020099102
000090 90 d9 08 bd ef b1 fe 3c f0 d1 e7 bc f1 a5 58 bc
       -0.03341061 0.031090705 -0.028298348 -0.013223157
0000a0 28 f1 38 bd 0c 6a 0b bc ec 26 4e bd 0a a7 17 bc
       -0.04515186 -0.00850917 -0.050330088 -0.009256134
0000b0 ef 65 8f ba e6 6f ea bd 61 c1 19 3c 6c 01 f8 bd
       -0.0010940413 -0.11447124 0.009384484 -0.12109646
0000c0 cc 67 72 bd 76 cb 3b bc e7 22 46 bc 53 e9 8a bd
       -0.05918102 -0.011462083 -0.012093282 -0.06782784
0000d0 cd 78 93 bd a1 f7 9b 3c 7c ba 63 bd 50 34 9b bc
       -0.07200775 0.019038977 -0.055597767 -0.018945843
0000e0 f3 89 ff bc e8 66 18 be 8e d1 de bd bb de 5f 3c
       -0.031193709 -0.14883006 -0.10879813 0.013663943
0000f0 08 33 1d bd 75 e4 bf bd a7 53 e7 3b 15 2b cb 3b
       -0.038378745 -0.093697466 0.0070595327 0.006200204

classifier.3.bias f4 [54]
000000 d5 05 f4 3d 3a 7f 86 3a 09 25 6c 3d ca e6 d6 bc
       0.11915175 0.0010261305 0.057652507 -0.026233096
000010 51 46 52 bd ff 88 7a bd a9 64 d1 3b 86 16 1b bd
       -0.05133659 -0.061165806 0.0063901735 -0.037863277
000020 be 8a 80 bb a8 de 42 bd 8c d8 23 bd 6d f2 86 3d
       -0.0039227894 -0.047575623 -0.040001437 0.06589208
000030 aa c4 48 bd bc 84 2f bc 82 52 e4 bc 6f d7 82 3b
       -0.04901568 -0.010712799 -0.027871374 0.003992967
000040 7e e6 0f bd d7 c3 1e 3d c1 92 68 bd 4f e6 e1 3c
       -0.035131924 0.038760986 -0.05678058 0.02757564
000050 f0 5b 74 bc 78 57 78 bd 11 26 76 3d 85 88 ea 3c
       -0.014914498 -0.06063029 0.060094897 0.02862955
000060 f0 d0 9f 3c f7 d1 57 3c 26 d7 52 3d 99 6f ff bb
       0.019508809 0.013172618 0.051474713 -0.007795286
000070 a7 c0 e0 3d 6d ec 38 bd 3f 06 53 3d 9a c2 64 3d
       0.109742455 -0.04514735 0.05151963 0.05584965
000080 a8 0a 4f 3c bf 25 c6 bd ab fd bd 3b ff e7 a9 bd
       0.012636818 -0.09675168 0.005798062 -0.08296203
000090 ed 39 12 3d 43 ed be bd 07 c5 7d bd 3c 0f a4 3c
       0.035699774 -0.09322598 -0.061955478 0.020026796
0000a0 fb d8 b6 3c 7b 9c 86 3b 11 07 05 bd d5 1c 65 3d
       0.022320261 0.0041080094 -0.032477442 0.0559357
0000b0 0d eb 5c bc 73 f0 2c 3d 82 71 f1 3c 06 0d 2e bd
       -0.013483775 0.042221498 0.02947307 -0.04249289
0000c0 fd 9e 62 3d d4 43 1c 3d a6 7e 5c bd 1d a6 b1 bd
       0.055327404 0.038150623 -0.05383172 -0.08674262
0000d0 56 8d 27 bd 0a 02 dc 3d
       -0.040906273 0.107425764
