Config/OCR/models/custom/model.onnx (onnx, 21212 bytes, 3 tensors)

features.0.bias f4 [32]
0.064430855 0.07377042 0.06894274 -0.0045417384 0.25030312 0.00030708103 -0.040336877 -0.2520837
0.09600351 0.12542398 -0.054629646 0.08206867 -0.08604118 -0.004039886 -0.06738202 0.032824617
-0.12818512 -0.30160028 -0.17003335 -0.12719469 -0.016854495 0.10718381 -0.2277805 0.036920752
0.091189526 -0.30977854 0.15514672 -0.05610978 -0.19987348 0.29673374 -0.08202472 0.024758652
00000000: 53f4 833d f214 973d da31 8d3d ddd2 94bb
00000010: bb27 803e b8ff a039 4838 25bd 1d11 81be
00000020: 7d9d c43d 256f 003e 56c3 5fbd 9e13 a83d
00000030: 5c36 b0bd 0561 84bb 96ff 89bd 1b73 063d
00000040: f642 03be 5a6b 9abe 391d 2ebe 533f 02be
00000050: 7012 8abc 2f83 db3d 4b3f 69be 373a 173d
00000060: 93c1 ba3d 4b9b 9ebe c8de 1e3e 5ed3 65bd
00000070: a2ab 4cbe 7ced 973e 94fc a7bd a8d2 ca3c

features.3.bias f4 [64]
-0.049755402 0.0068443445 0.01861919 0.07682242 0.018157346 -0.028229866 -0.06330411 -0.04248241
0.0015936607 0.076032326 -0.05834362 -0.01681854 -0.047634337 -0.030753903 -0.03569851 0.012642824
-0.034322847 0.037350312 0.03358403 0.004332035 -0.035703607 0.06787396 -0.06865955 -0.0103935255
-0.034812845 0.019667707 -0.0009056246 0.011002349 0.040764168 0.053268038 -0.044048145 -0.054244917
-0.050099485 0.012197036 0.0075600483 -0.049161352 0.012972445 -0.06730904 -0.054511063 -0.009874932
-0.020883083 -0.039565902 -0.039750304 -0.0044184173 -0.0006610491 -0.035020716 -0.0068466803 -0.04602943
0.010660845 -0.03626166 -0.006111869 0.030103417 0.028747883 -0.0095953075 -0.009927956 -0.007824671
0.056727465 0.013449803 -0.073372066 -0.032271866 -0.0019572603 0.03146206 0.038874958 0.03559479
00000000: 52cc 4bbd 8646 e03b 4687 983c 1355 9d3d
00000010: b7be 943c 5242 e7bc 96a5 81bd 0902 2ebd
00000020: 61e2 d03a d6b6 9b3d b8f9 6ebd 09c7 89bc
00000030: 391c 43bd 9cef fbbc 9a38 12bd d923 4f3c
00000040: 1d96 0cbd a4fc 183d 688f 093d bef3 8d3b
00000050: f23d 12bd 8101 8b3d 619d 8cbd 9b49 2abc
00000060: ea97 0ebd 2c1e a13c 7067 6dba 3243 343c
00000070: 54f8 263d 962f 5a3d d46b 34bd eb2f 5ebd
00000080: 1e35 4dbd 14d6 473c 48ba f73b 6a5d 49bd
00000090: 618a 543c 52d9 89bd fe46 5fbd 77ca 21bc
000000a0: 0013 abbc db0f 22bd 37d1 22bd 5fc8 90bb
000000b0: 414a 2dba e271 0fbd 1e5a e0bb 5b89 3cbd
000000c0: d3aa 2e3c 1b87 14bd 1346 c8bb 719b f63c
000000d0: ae80 eb3c a335 1dbc dea8 22bc 0d33 00bc
000000e0: 0f5b 683d 905c 5c3c 1844 96bd 812f 04bd
000000f0: 6145 00bb 5cde 003d 593b 1f3d d8cb 113d

classifier.3.bias f4 [45]
-0.037026566 0.020023981 0.031233612 -0.017769566 -0.00090311933 0.00016966034 0.01618285 0.07384584
-0.030223059 0.022796847 -0.07143891 0.027703749 -0.05864773 -0.0043184366 -0.045017663 -0.04540336
0.020981358 0.07006891 0.0032382535 0.055945404 -7.220849e-05 -0.015951173 -0.047457688 0.046349455
0.0295259 0.04433574 -0.029392777 0.04236438 -0.03480203 -0.016972927 0.033309307 0.06524027
-0.041695878 0.032878347 0.02622454 -0.05563725 0.033207607 -0.045512937 -0.06808292 -0.041094176
-0.04597021 -0.050231185 -0.08212878 0.016598543 -0.021365348
00000000: 2ba9 17bd 5509 a43c a2dd ff3c 7b91 91bc
00000010: 50bf 6cba dae6 3139 e591 843c 7d3c 973d
00000020: 5996 f7bc 74c0 ba3c 904e 92bd f9f2 e23c
00000030: 9a38 70bd ac81 8dbb 7164 38bd e0f8 39bd
00000040: 19e1 ab3c 4a80 8f3d e138 543b 0227 653d
00000050: a36e 97b8 09ac 82bc fe62 42bd edd8 3d3d
00000060: 4de0 f13c 6599 353d 1fc9 f0bc 4686 2d3d
00000070: 938c 0ebd cf0a 8bbc 576f 083d b19c 853d
00000080: 4cc9 2abd 72ab 063d d9d4 d63c e3e3 63bd
00000090: b304 083d c66b 3abd 0f6f 8bbd 5e52 28bd
000000a0: 424b 3cbd 37bf 4dbd 2233 a8bd abf9 873c
000000b0: 6206 afbc
